Flutter_predictionApp/assets/ml_model.tflite (tflite, 3828 bytes, 6 tensors)

sequential_5/dense_15/BiasAdd/ReadVariableOp/resource f4 [7]
-0.06727319 -0.0017266166 -0.0022694836 0.05190704 0.0 0.0 -0.034285437
00000000: 87c6 89bd a44f e2ba 9ebb 14bb 7a9c 543d
00000010: 0000 0000 0000 0000 e36e 0cbd

sequential_5/dense_16/BiasAdd/ReadVariableOp/resource f4 [14]
0.0009070406 -0.0052674147 0.0 0.16079067 0.054099616 0.029311556 0.0025059439 0.037224267
0.018488372 -0.10533357 -0.0069822245 -0.0047476813 0.017772254 0.0
00000000: 77c6 6d3a 479a acbb 0000 0000 4fa6 243e
00000010: 8f97 5d3d ca1e f03c c33a 243b 7978 183d
00000020: ed74 973c 20b9 d7bd 25cb e4bb 7092 9bbb
00000030: 1e97 913c 0000 0000

sequential_5/dense_17/BiasAdd/ReadVariableOp/resource f4 [22]
0.33437315 -0.05106306 0.23971748 0.046837434 -0.6152502 -0.21029851 -0.021163244 0.119553186
0.10513519 -0.16322418 0.10170989 0.46585715 -0.07131009 0.4035095 0.46972275 -0.042113483
-0.23281449 0.48594198 -0.32565343 -0.4630973 -0.5715412 -0.0048262016
00000000: f532 ab3e 8027 51bd 8078 753e 9cd8 3f3d
00000010: 0981 1dbf 7e58 57be 8a5e adbc 4dd8 f43d
00000020: 1e51 d73d 3d24 27be 464d d03d d484 ee3e
00000030: 060b 92bd cc98 ce3e 807f f03e 307f 2cbd
00000040: ec66 6ebe 63cd f83e 0cbc a6be 171b edbe
00000050: 8650 12bf 1d25 9ebb

sequential_5/dense_15/MatMul f4 [7, 7]
-0.027390085 -0.09610367 0.51925075 -1.4531399 0.8286945 -0.55964655 0.048532218 0.46217117
-0.447487 -0.3880078 -0.23543406 -0.03645806 -0.41732252 -0.6885377 -0.6457549 -0.20765667
-0.30651104 0.5445109 0.5715298 -0.20083052 0.7233313 -0.2766667 1.1772268 0.18370925
0.042308822 -0.15665029 0.07652725 -0.04361704 0.12607723 -0.3610595 0.0777455 -0.04191166
-0.13146067 0.4136331 -0.52300525 -0.13694191 -0.44654992 0.107963204 0.33252698 -0.58894444
-0.034196675 -0.5605323 0.6457412 0.20735978 -0.43057248 -0.78251725 -0.42434168 -0.35413688
0.68193156
00000000: 2c61 e0bc 00d2 c4bd 9eed 043f 7d00 babf
00000010: 5325 543f ff44 0fbf b8c9 463d b3a1 ec3e
00000020: 041d e5be f5a8 c6be a015 71be 0c55 15bd
00000030: 4cab d5be 0244 30bf 3150 25bf f3a3 54be
00000040: 04ef 9cbe 1165 0b3f c74f 123f 84a6 4dbe
00000050: 3d2c 393f 42a7 8dbe 5eaf 963f 471e 3c3e
00000060: 044c 2d3d ef68 20be 52ba 9c3d c8a7 32bd
00000070: 641a 013e cadc b8be 0839 9f3d 90ab 2bbd
00000080: a09d 06be b8c7 d33e ace3 05bf 803a 0cbe
00000090: 31a2 e4be d01b dd3d fa40 aa3e 10c5 16bf
000000a0: d011 0cbd 0b7f 0fbf 4c4f 253f 1f56 543e
000000b0: ff73 dcbe 0d53 48bf 5043 d9be 6e51 b5be
000000c0: 1193 2e3f

sequential_5/dense_16/MatMul f4 [14, 7]
-0.45950758 0.5158456 0.12618998 -0.43324795 0.48313552 -0.39265937 -0.39179814 0.041902903
0.117456146 -0.4301474 -0.2323893 0.081168234 -0.13826242 -0.2463477 -0.076223075 -0.4944325
-0.30536735 -0.52458596 -0.016349435 0.3444819 0.00738132 -0.8905908 0.42580226 0.2818065
0.495754 0.21849132 0.10098517 0.05230537 -0.11676103 0.41619107 0.51873815 -0.30686975
0.13337636 -0.40786487 -0.40372628 -0.17256664 -0.40750548 -0.7892036 0.2644145 -0.0898872
0.361551 -0.38827762 0.24159591 -0.13775744 -0.5799286 -0.3543591 -0.17350408 -0.15117607
-0.48604512 0.28261214 0.033751056 -0.43590474 -0.79872996 0.26359415 -0.51357526 0.5662576
-0.66423965 -0.37951863 -0.16533962 0.32201076 -0.36776635 0.34237975 -0.24842113 -0.4853903
0.08450538 0.24051614 -0.023586838 0.3331079 -0.49646926 0.45580032 0.031014346 -0.47092447
-0.4301944 -0.17038359 0.32577318 -0.5222059 -0.31346422 -0.2988164 0.34386918 -0.20459722
0.0864145 0.1794275 -0.05352509 -0.42922044 0.076872356 -0.00034846488 -0.5652124 0.30117458
-0.4410969 -0.3072244 0.47158664 -0.38215458 0.19745272 -0.19844666 -0.37325025 -0.12335563
0.53338605 -0.19734073
00000000: 9444 ebbe 750e 043f f237 013e add2 ddbe
00000010: 8a5d f73e a60a c9be c499 c8be 61a2 2b3d
00000020: d98c f03d 483c dcbe 76f7 6dbe 883b a63d
00000030: aa94 0dbe 9242 7cbe d81a 9cbd 4226 fdbe
00000040: 1c59 9cbe 444b 06bf 40ef 85bc ee5f b03e
00000050: 00df f13b c2fd 63bf c102 da3e f148 903e
00000060: 78d3 fd3e 30bc 5f3e 50d1 ce3d 283e 563d
00000070: 6820 efbd ff16 d53e 06cc 043f 081e 9dbe
00000080: d093 083e aad3 d0be 36b5 cebe 4fb5 30be
00000090: 8fa4 d0be 3f09 4abf 5661 873e c816 b8bd
000000a0: 361d b93e 53cc c6be eb64 773e 4910 0dbe
000000b0: 3376 14bf 8e6e b5be 0eab 31be e6cd 1abe
000000c0: e8da f8be 8ab2 903e 8c3e 0a3d e82e dfbe
000000d0: 9179 4cbf d0f5 863e ab79 03bf 42f6 103f
000000e0: 9c0b 2abf 4450 c2be ca4e 29be 98de a43e
000000f0: df4b bcbe 664c af3e 1c62 7ebe 1485 f8be
00000100: 2811 ad3d dd49 763e 2f39 c1bc 1e8d aa3e
00000110: 3831 febe a95e e93e cc11 fe3c 031d f1be
00000120: 7142 dcbe 0979 2ebe becb a63e 49af 05bf
00000130: 627e a0be 77fe 98be 9f0f b03e ef81 51be
00000140: 16fa b03d d8bb 373e 203d 5bbd c8c2 dbbe
00000150: 416f 9d3d 2ab2 b6b9 c3b1 10bf 8e33 9a3e
00000160: 74d7 e1be 844c 9dbe ce73 f13e c4a9 c3be
00000170: 0c31 4a3e 9a35 4bbe a81a bfbe e0a1 fcbd
00000180: fd8b 083f b013 4abe

sequential_5/dense_17/MatMul f4 [22, 14]
0.17269415 0.00017893605 -0.2130087 -0.48958883 -0.18071207 -0.39423338 -0.22233027 -0.034665775
0.24008895 -0.5417363 0.01627814 0.009145265 0.5079171 -0.26789796 0.30131117 0.24959017
-0.12710357 -0.16458008 -0.09326864 -0.07659712 -0.1256589 -0.25277743 0.1753113 0.28723583
0.009500615 -0.0071517495 0.39400756 -0.044733047 0.37283474 -0.015241236 -0.18236874 0.46700016
-0.3046769 -0.22551697 0.15694275 -0.2684048 -0.23932052 -0.08183461 0.07872044 -0.07679027
-0.061017726 0.25442594 -0.096955836 -0.036616407 -0.1530318 0.23581514 -0.3981173 -0.34839368
-0.23157339 -0.24435875 0.21288264 -0.3661941 -0.032599702 0.13726768 0.41362026 -0.22898822
-0.022542924 0.1618396 -0.3239482 -0.36361367 0.28228465 -0.25861126 -0.01920549 0.14018033
0.29638374 0.42110226 -0.3770921 0.18399985 -0.3159115 -0.02538374 0.19215922 -0.26822123
-0.10391113 -0.04166165 -0.46830514 0.3163219 0.15244104 0.34936583 -0.21242137 0.47076452
-0.09006838 0.30605188 -0.1364211 0.32057524 0.03317511 -0.121882506 -0.16220863 -0.17358916
-0.35239694 0.30632135 -0.32144016 0.27849296 0.31577972 0.27932763 -0.2518504 0.18482992
0.26399297 -0.25712892 0.22052181 -0.31370854 -0.018267453 -0.3522353 -0.3863292 0.20904619
-0.35033104 -0.2344714 0.19339736 -0.35453013 -0.20874014 -0.3778312 0.40156874 -0.37791213
0.09191544 0.17695624 -0.2376709 -0.47300217 -0.41162446 -0.009863705 0.38312963 -0.06946301
0.20924568 0.6682848 0.13419452 0.054617777 -0.092838675 0.34982342 -0.25337338 -0.2973101
-0.029640824 0.266738 -0.4645736 0.1206619 -0.16909444 0.001780973 0.32818776 0.26131347
0.055821758 0.16137154 -0.015857328 -0.01530382 0.017415762 0.16397996 -0.16010982 0.5866999
-0.3907309 0.06413647 -0.09718619 0.086604446 -0.2620761 -0.7378306 0.061335213 0.32125503
-0.0409678 0.34016716 0.19794852 0.3558339 -0.24825041 -0.14663175 -0.35287905 -0.353425
0.010219102 -0.002857399 -0.042594574 0.50988287 0.08258205 -0.20195867 0.18241502 0.06149465
0.34114 0.3572194 -0.28772616 0.14233257 0.18305106 -0.10545558 0.25321418 -0.11873029
-0.012007586 0.27183053 -0.18895417 -0.025661495 -0.14037485 0.39892322 0.27642503 -0.055355053
0.023373574 0.38508573 -0.029086875 0.34461462 -0.3051838 -0.079012915 0.24048331 -0.07486359
0.09509314 -0.3667642 -0.18228534 0.03763008 0.10577763 0.20689164 0.06545213 0.21260159
0.34298396 0.024282962 -0.08777132 0.009658351 -0.17914246 -0.6799802 0.17910092 -0.16842578
-0.12732787 -0.07401228 -0.24616854 0.11610128 0.08907229 -0.18472935 -0.23854183 0.36142623
0.639396 0.4244564 0.09636842 -0.23943357 -0.20287669 0.20450747 -0.19645643 0.07612461
-0.2931455 -0.384595 0.12833339 -0.25639632 0.30626604 -0.123123534 -0.14092498 -0.3629188
0.30126143 0.24491538 0.38518518 -0.40213895 -0.2944675 -0.3729449 0.34760922 -0.29461673
0.1025399 -0.045032233 0.097002365 -0.2903385 0.24579257 -0.22740056 0.11749196 0.43660116
-0.36293897 -0.15857446 0.037754804 0.16172254 -0.15508576 0.018957557 0.22803384 0.27799323
00000000: bcd6 303e c8a0 3b39 f41e 5abe 63ab fabe
00000010: 960c 39be f5d8 c9be 8caa 63be b3fd 0dbd
00000020: e1d9 753e 3baf 0abf bc59 853c 06d6 153c
00000030: db06 023f ec29 89be 7545 9a3e 9194 7f3e
00000040: 7027 02be ae87 28be a103 bfbd f3de 9cbd
00000050: baac 00be 0b6c 81be ce84 333e 9310 933e
00000060: 78a8 1b3c 3959 eabb 5cbb c93e 003a 37bd
00000070: 32e4 be3e 61b6 79bc dfbe 3abe a51a ef3e
00000080: 9cfe 9bbe eced 66be 9ab5 203e 5b6c 89be
00000090: 7010 75be e798 a7bd 2f38 a13d 3844 9dbd
000000a0: b9ed 79bd 1e44 823e c890 c6bd 16fb 15bd
000000b0: 5eb4 1cbe 8679 713e 08d6 cbbe a860 b2be
000000c0: 9321 6dbe 2e39 7abe e8fd 593e cb7d bbbe
000000d0: 4487 05bd e68f 0c3e 09c6 d33e e37b 6abe
000000e0: f0ab b8bc 48b9 253e 8adc a5be 922b babe
000000f0: 9d87 903e b268 84be d554 9dbc 6f8b 0f3e
00000100: 9cbf 973e b79a d73e 3712 c1be 756a 3c3e
00000110: 27bf a1be 90f1 cfbc 63c5 443e 4b54 89be
00000120: 5ccf d4bd 68a5 2abd b1c5 efbe f2f4 a13e
00000130: 8119 1c3e 14e0 b23e fd84 59be 0c08 f13e
00000140: c575 b8bd d5b2 9c3e f9b1 0bbe 7022 a43e
00000150: a0e2 073d 899d f9bd 051a 26be 5bc1 31be
00000160: 5f6d b4be 27d6 9c3e ce93 a4be a196 8e3e
00000170: e1ad a13e 0804 8f3e 89f2 80be 0e44 3d3e
00000180: 162a 873e 67a6 83be 78d0 613e 689e a0be
00000190: a0a5 95bc 2f58 b4be f1cc c5be 3410 563e
000001a0: 975e b3be 4519 70be f509 463e f984 b5be
000001b0: fabf 55be 1773 c1be 6b9a cd3e b37d c1be
000001c0: 2a3e bc3d 0434 353e 0060 73be 572d f2be
000001d0: 71c0 d2be 619b 21bc 9129 c43e 9f42 8ebd
000001e0: 8044 563e b614 2b3f 4a6a 093e e4b6 5f3d
000001f0: 3422 bebd 0e1c b33e 28ba 81be 0839 98be
00000200: 50d1 f2bc e291 883e 97dc edbe 961d f73d
00000210: 1827 2dbe 8a6f e93a 3a08 a83e e1ca 853e
00000220: 5ba5 643d 953e 253e 3ae7 81bc e0bc 7abc
00000230: 80ab 8e3c 5dea 273e d4f3 23be f731 163f
00000240: e10d c8be fb59 833d 8e09 c7bd ac5d b13d
00000250: d72e 86be 77e2 3cbf a23a 7b3d 8a7b a43e
00000260: dacd 27bd 642a ae3e 04b3 4a3e dc2f b63e
00000270: 5b35 7ebe a226 16be 90ac b4be 1ff4 b4be
00000280: 056e 273c 3343 3bbb a677 2ebd af87 023f
00000290: c720 a93d 41ce 4ebe 01cb 3a3e d0e1 7b3d
000002a0: e7a9 ae3e 76e5 b63e d850 93be a1bf 113e
000002b0: bd71 3b3e 18f9 d7bd 4aa5 813e de28 f3bd
000002c0: 77bb 44bc 5f2d 8b3e 347d 41be 0e38 d2bc
000002d0: 6dbe 0fbe aa3f cc3e 9587 8d3e fbbb 62bd
000002e0: f079 bf3c f529 c53e 9947 eebc 5471 b03e
000002f0: 0d41 9cbe 86d1 a1bd 4241 763e 1552 99bd
00000300: 31c0 c23d 84c8 bbbe 02a9 3abe 0022 1a3d
00000310: f1a1 d83d 67db 533e c40b 863d 3bb4 593e
00000320: 989b af3e 10ed c63c 73c1 b3bd 0f3e 1e3c
00000330: 1f71 37be 2f13 2ebf 3b66 373e cf77 2cbe
00000340: 3d62 02be c093 97bd 9b13 7cbe 82c6 ed3d
00000350: 886b b63d b129 3dbe 4f44 74be dc0c b93e
00000360: 75af 233f 5952 d93e ce5c c53d 132e 75be
00000370: e8be 4fbe 686a 513e e02b 49be 38e7 9b3d
00000380: 2b17 96be a3e9 c4be d469 033e 6146 83be
00000390: e7ce 9c3e 3128 fcbd a34e 10be 7ed0 b9be
000003a0: f03e 9a3e 19cb 7a3e fe36 c53e 28e5 cdbe
000003b0: 72c4 96be a2f2 bebe d6f9 b13e 01d8 96be
000003c0: 7000 d23d b873 38bd 2da9 c63d 3fa7 94be
000003d0: 0cb1 7b3e b1db 68be a09f f03d 308a df3e
000003e0: 23d3 b9be 5861 22be c8a4 1a3d 989a 253e
000003f0: cdce 1ebe e14c 9b3c b481 693e 2155 8e3e
